wandb: WARNING Calling run.save without any arguments is deprecated.Changes to attributes are automatically persisted.
Using lstm as encoder ...
EncoderRNN(
  (embedding): Embedding(992, 256, padding_idx=0)
  (drop): Dropout(p=0.5)
  (rnn): CustomRNN(
    (cell_0): LSTMCell(256, 512)
    (dropout_layer): Dropout(p=0)
  )
)
HybridAgent_high(
  (action_embedding): Embedding(37, 512, padding_idx=36)
  (high_model): HighLevelModel(
    (proj_navigable_mlp): Sequential(
      (0): BatchNorm1d(2048, eps=1e-05, momentum=0.1, affine=True, track_running_stats=True)
      (1): Linear(in_features=2048, out_features=1024, bias=True)
      (2): BatchNorm1d(1024, eps=1e-05, momentum=0.1, affine=True, track_running_stats=True)
      (3): Dropout(p=0.5)
      (4): ReLU(inplace)
    )
    (ctx_t_img_fc): Linear(in_features=512, out_features=1024, bias=True)
    (soft_attn): SoftAttention(
      (softmax): Softmax()
    )
    (dropout): Dropout(p=0.5)
    (lstm): LSTMCell(2048, 512)
    (logit_fc): Linear(in_features=1024, out_features=1024, bias=True)
  )
  (h0_t_ctx_fc): Linear(in_features=512, out_features=512, bias=True)
  (soft_attn): SoftAttention(
    (softmax): Softmax()
  )
  (dropout): Dropout(p=0.5)
  (lang_position): PositionalEncoding(
    (dropout): Dropout(p=0.1)
  )
  (h2_fc_lstm): Linear(in_features=1536, out_features=512, bias=True)
  (critic): Sequential(
    (0): Linear(in_features=612, out_features=1, bias=True)
    (1): Tanh()
  )
)
Reading image features file preprocessed_data/img_features/ResNet-152-imagenet.tsv
Loading image features ..
